fart-noises.tflite (tflite, 10232 bytes, 9 tensors)

arith.constant f2 [11]
0	0xa81f	-0.0322
1	0x2a7f	0.05075
2	0x0d06	0.0003066
3	0xa110	-0.00989
4	0x28c4	0.03723
5	0x26e2	0.02689
6	0x9eae	-0.006523
7	0xa9ae	-0.04437
8	0x1fee	0.007744
9	0xa99b	-0.0438
10	0xa7dd	-0.03072

arith.constant1 f2 [11, 3, 3, 1]
0	0x264b	0.02458
1	0xa8ed	-0.03848
2	0xad0c	-0.07886
3	0xb25e	-0.199
4	0xb1e6	-0.1843
5	0x2f77	0.11664
6	0xae37	-0.0971
7	0xaca4	-0.0725
8	0xb395	-0.2369
9	0xb103	-0.1566
10	0x301c	0.1284
11	0x316c	0.1694
12	0xb226	-0.1921
13	0x2ec8	0.10596
14	0x3200	0.1875
15	0xb20e	-0.1892
16	0x2c62	0.0685
17	0x2fe0	0.12305
18	0x317b	0.1713
19	0x3289	0.2042
20	0xb24c	-0.1968
21	0x33a5	0.2389
22	0xb03f	-0.1327
23	0x22ac	0.01303
24	0xa080	-0.00879
25	0x2fce	0.12195
26	0xaf9f	-0.1191
27	0x3032	0.1311
28	0x1c31	0.004093
29	0xaa6a	-0.0501
30	0x327c	0.2026
31	0xa778	-0.02917
32	0x2fc9	0.12164
33	0x33d4	0.2446
34	0xb213	-0.1898
35	0xace0	-0.0762
36	0xaad4	-0.05334
37	0x303e	0.1326
38	0xb2cf	-0.2128
39	0xb1bc	-0.1792
40	0x3154	0.1665
41	0x2c6a	0.069
42	0x3243	0.1957
43	0xb04c	-0.1343
44	0x2f95	0.11847
45	0xb193	-0.1742
46	0xa8e4	-0.0382
47	0xa1b7	-0.01116
48	0x25bf	0.02245
49	0xac1b	-0.06415
50	0xa8ea	-0.0384
51	0xaf72	-0.11633
52	0xa2d7	-0.01336
53	0x331d	0.2223
54	0xb2df	-0.2147
55	0x334c	0.228
56	0x32f0	0.2168
57	0x28e7	0.0383
58	0x2771	0.02907
59	0xae09	-0.0943
60	0xb0c3	-0.1488
61	0xad7a	-0.0856
62	0x2f0e	0.1102
63	0x29aa	0.04425
64	0x2f51	0.1143
65	0xb2d6	-0.2136
66	0x308d	0.1422
67	0xb002	-0.1252
68	0x24bd	0.01851
69	0xb2af	-0.2089
70	0x32ac	0.2085
71	0xad94	-0.08716
72	0x3305	0.2194
73	0xa460	-0.01709
74	0x312a	0.1614
75	0xb013	-0.1273
76	0xae0e	-0.0946
77	0xb0d5	-0.151
78	0x243c	0.01654
79	0xb0be	-0.1482
80	0xb061	-0.1368
81	0xafbf	-0.12103
82	0x2f41	0.11334
83	0x30fe	0.156
84	0xaf4a	-0.1139
85	0xb227	-0.1923
86	0xb30d	-0.2203
87	0x2f4d	0.1141
88	0x3398	0.2373
89	0x317c	0.1714
90	0xb12c	-0.1616
91	0xa056	-0.00847
92	0x25d9	0.02284
93	0xb3ee	-0.2478
94	0xad0b	-0.0788
95	0x2f87	0.1176
96	0xb1d8	-0.1826
97	0x3415	0.2551
98	0xb20a	-0.1887

arith.constant2 f2 [11]
0	0xb73f	-0.453
1	0xb8f5	-0.6196
2	0xb8e2	-0.6104
3	0xb975	-0.682
4	0xb885	-0.565
5	0xb92e	-0.6475
6	0xb7e4	-0.4932
7	0xb752	-0.4575
8	0xb960	-0.672
9	0xb860	-0.547
10	0xb791	-0.473

arith.constant3 f2 [11]
0	0x406e	2.215
1	0x4563	5.387
2	0x45a4	5.64
3	0x4528	5.156
4	0x4a5a	12.7
5	0x4717	7.09
6	0x49f4	11.91
7	0x4bae	15.36
8	0x4573	5.45
9	0x4a11	12.13
10	0x4325	3.572

arith.constant4 f2 [22]
0	0xb856	-0.542
1	0xb3e4	-0.2466
2	0xb84a	-0.536
3	0xb393	-0.2367
4	0xb54d	-0.3313
5	0xb4dc	-0.3037
6	0xb540	-0.3281
7	0xb519	-0.3186
8	0xb3fb	-0.2494
9	0xb36b	-0.2318
10	0xbadb	-0.857
11	0xb378	-0.2334
12	0xb35a	-0.2297
13	0xb3ce	-0.2439
14	0xb485	-0.2825
15	0xbb12	-0.884
16	0xb421	-0.258
17	0xb931	-0.649
18	0xb973	-0.681
19	0xb531	-0.3245
20	0xb43e	-0.2651
21	0xb6b5	-0.4192

arith.constant5 f2 [22]
0	0x45fa	5.977
1	0x4ccc	19.19
2	0x4631	6.19
3	0x4b2c	14.34
4	0x492a	10.33
5	0x4a6a	12.83
6	0x496f	10.87
7	0x48db	9.71
8	0x4b7f	14.99
9	0x4a45	12.54
10	0x4446	4.273
11	0x4ba4	15.28
12	0x4a7d	12.98
13	0x4acf	13.62
14	0x4a15	12.164
15	0x422a	3.082
16	0x4d7f	21.98
17	0x46c7	6.777
18	0x4316	3.543
19	0x4914	10.16
20	0x4b17	14.18
21	0x47b4	7.703

arith.constant8 f2 [1, 22]
0	0x3816	0.5107
1	0xb202	-0.1877
2	0x344a	0.268
3	0xb843	-0.5327
4	0x3608	0.377
5	0xb1fa	-0.1868
6	0xb1d1	-0.1818
7	0xb395	-0.2369
8	0xb81d	-0.514
9	0xb744	-0.454
10	0x3640	0.3906
11	0xb5e7	-0.369
12	0xb89b	-0.5757
13	0xb4ac	-0.292
14	0xb248	-0.1963
15	0x380d	0.5063
16	0xaedb	-0.1071
17	0x3728	0.4473
18	0xb6e1	-0.43
19	0xb520	-0.3203
20	0xb1d4	-0.1821
21	0x35c6	0.3608

arith.constant9 f2 [22, 3, 3, 11]
0	0xa7d4	-0.03058
1	0xacc6	-0.0746
2	0x2d01	0.0782
3	0xaebc	-0.1052
4	0xa2ee	-0.013535
5	0xad20	-0.0801
6	0xaea2	-0.10364
7	0x2b3f	0.0566
8	0xadbf	-0.0898
9	0xa0c7	-0.00933
10	0xad24	-0.0803
11	0xaa56	-0.0495
12	0x2d7d	0.08575
13	0xa40f	-0.01585
14	0xa477	-0.01744
15	0x2a7d	0.0507
16	0xaccb	-0.0749
17	0x2d8f	0.08685
18	0x2e05	0.09406
19	0xa757	-0.02867
20	0x2db2	0.089
21	0xa84e	-0.03363
22	0xaab9	-0.05252
23	0xaf36	-0.1127
24	0xa8a1	-0.03616
25	0x294d	0.0414
26	0x2c4d	0.0672
27	0x2d54	0.08325
28	0xa994	-0.04358
29	0xade2	-0.0919
30	0x2886	0.03534
31	0xaccf	-0.07513
32	0x25e0	0.02295
33	0x2906	0.03925
34	0x1cc6	0.00466
35	0x23d3	0.01528
36	0xad95	-0.0872
37	0xabf5	-0.06216
38	0x2f8b	0.11786
39	0xaff3	-0.1242
40	0x2464	0.01715
41	0x9ae2	-0.00336
42	0xab24	-0.0558
43	0x29ca	0.04523
44	0x22be	0.01317
45	0x265e	0.02487
46	0x969f	-0.0016165
47	0xab91	-0.0591
48	0xad26	-0.08044
49	0x2bc1	0.06058
50	0xa09b	-0.008995
51	0x9b6f	-0.00363
52	0x2990	0.04346
53	0xa118	-0.00995
54	0xab95	-0.05923
55	0xac92	-0.0714
56	0xa989	-0.04324
57	0xa968	-0.04224
58	0xabac	-0.05994
59	0xa7d8	-0.03064
60	0x2fbf	0.12103
61	0xa518	-0.0199
62	0xae5e	-0.0995
63	0x2957	0.04172
64	0xaf01	-0.10944
65	0xb007	-0.1259
66	0x2e64	0.09985
67	0x2afe	0.05463
68	0xabdc	-0.0614
69	0x218b	0.010826
70	0xa244	-0.01224
71	0xaf51	-0.1143
72	0x27af	0.03001
73	0x2414	0.01593
74	0x2c65	0.06866
75	0x2825	0.03238
76	0xacad	-0.07306
77	0xac07	-0.0629
78	0x24d9	0.01894
79	0x2b13	0.05527
80	0x1b2a	0.003498
81	0x2c0f	0.0634
82	0x300f	0.1268
83	0x2b85	0.05875
84	0xaf48	-0.1138
85	0xaf79	-0.11676
86	0x3021	0.129
87	0x1277	0.000789
88	0x1d95	0.00545
89	0xab11	-0.0552
90	0xa4ab	-0.01823
91	0xb04a	-0.134
92	0xadbe	-0.0897
93	0xac56	-0.06775
94	0x209d	0.00901
95	0x27b9	0.03017
96	0xaedb	-0.1071
97	0x2091	0.00892
98	0x2b88	0.05884
99	0xac41	-0.06647
100	0xa2d8	-0.01337
101	0xa74d	-0.02852
102	0x2535	0.02034
103	0xa85d	-0.0341
104	0xace0	-0.0762
105	0x252c	0.0202
106	0xa1d2	-0.01137
107	0x276d	0.029
108	0xa6c6	-0.02646
109	0x2a6c	0.05017
110	0xa04a	-0.00838
111	0xa8e7	-0.0383
112	0x18e4	0.002388
113	0x253c	0.02045
114	0xa8a3	-0.03622
115	0x2435	0.01643
116	0x9f97	-0.007412
117	0x2b54	0.05725
118	0xa9ab	-0.04428
119	0x29eb	0.04623
120	0xa832	-0.03278
121	0x2002	0.00783
122	0xad3e	-0.0819
123	0x2474	0.0174
124	0x242a	0.01627
125	0xaa80	-0.05078
126	0xadce	-0.0907
127	0xa98f	-0.04343
128	0x9ae3	-0.003363
129	0x9ff9	-0.007786
130	0xa8ed	-0.03848
131	0x2b2e	0.0561
132	0xad4e	-0.0829
133	0x2c20	0.06445
134	0xa70c	-0.02753
135	0x2c75	0.06964
136	0x9928	-0.002518
137	0x8688	-9.966e-05
138	0xa37c	-0.01462
139	0xa6af	-0.02611
140	0x2c5f	0.0683
141	0xaac6	-0.05292
142	0x9d6b	-0.00529
143	0xae7a	-0.1012
144	0x9d07	-0.00491
145	0xaa25	-0.048
146	0x28c6	0.0373
147	0xa719	-0.02773
148	0x28e7	0.0383
149	0xa568	-0.02112
150	0xa6a8	-0.026
151	0xadfe	-0.0936
152	0xabac	-0.05994
153	0x27df	0.03075
154	0x2bb6	0.06024
155	0x9cee	-0.004814
156	0xa678	-0.02527
157	0xa69a	-0.02579
158	0xa998	-0.0437
159	0xaa0f	-0.04733
160	0x28d6	0.03778
161	0x0fcd	0.0004761
162	0x2cae	0.0731
163	0x29bc	0.0448
164	0x2161	0.010506
165	0xac5d	-0.0682
166	0xa526	-0.02011
167	0x97d2	-0.001909
168	0x29e4	0.04602
169	0x1e4b	0.006145
170	0xa4cd	-0.01875
171	0x298b	0.0433
172	0xa39d	-0.01487
173	0x2c10	0.0635
174	0x14b1	0.001145
175	0x2738	0.0282
176	0x23af	0.01501
177	0x940c	-0.000988
178	0x2b50	0.05713
179	0x2d47	0.08246
180	0xaa44	-0.04895
181	0xa978	-0.04272
182	0x99aa	-0.002766
183	0x2844	0.03333
184	0x2922	0.0401
185	0xa71b	-0.02776
186	0x2b79	0.05838
187	0xa937	-0.04074
188	0xace1	-0.07623
189	0xa3b8	-0.015076
190	0xa3bb	-0.0151
191	0xad6e	-0.08484
192	0x27ae	0.03
193	0x28b0	0.03662
194	0x1b4c	0.003563
195	0x2907	0.03928
196	0xa495	-0.0179
197	0x9886	-0.002209
198	0x249e	0.01804
199	0x242e	0.01633
200	0xaf0a	-0.11
201	0x2817	0.03195
202	0x2e27	0.0961
203	0xaa3a	-0.04865
204	0xac61	-0.0684
205	0x2c2f	0.06537
206	0x9a5c	-0.003105
207	0x2b08	0.05493
208	0xa800	-0.03125
209	0xa814	-0.03186
210	0x2689	0.02553
211	0x2071	0.008675
212	0xaa24	-0.04797
213	0xaac3	-0.05283
214	0x2ba3	0.05966
215	0xadb2	-0.089
216	0xa719	-0.02773
217	0x2caa	0.0729
218	0x2b96	0.05927
219	0xacc8	-0.0747
220	0xa716	-0.02768
221	0x217f	0.010735
222	0xa2ca	-0.01326
223	0xac24	-0.0647
224	0x10d5	0.00059
225	0x23df	0.01537
226	0x2a34	0.04846
227	0x2def	0.0927
228	0x2829	0.0325
229	0xa952	-0.04156
230	0xac76	-0.0697
231	0xa22c	-0.012054
232	0x2d11	0.07916
233	0xadd2	-0.09094
234	0x25c2	0.02249
235	0x2d4e	0.0829
236	0x2fd5	0.1224
237	0x9d5f	-0.005245
238	0xad45	-0.08234
239	0x2e56	0.099
240	0x2356	0.01433
241	0xa856	-0.03387
242	0x2a3b	0.04868
243	0xae66	-0.1
244	0x1ffe	0.007805
245	0x2e51	0.0987
246	0x2540	0.02051
247	0xa6dd	-0.02681
248	0x2c5a	0.068
249	0xa8c0	-0.0371
250	0xa4cc	-0.01874
251	0xa031	-0.00819
252	0xabf3	-0.0621
253	0x2b0b	0.05502
254	0x2f24	0.1116
255	0xada9	-0.08844

arith.constant10 f2 [22]
0	0xae18	-0.0952
1	0xae71	-0.10065
2	0xaf6f	-0.11615
3	0xae87	-0.102
4	0xad59	-0.08356
5	0xabda	-0.06134
6	0xadff	-0.0937
7	0xa7a4	-0.02985
8	0xae6a	-0.1002
9	0xae3b	-0.09735
10	0xa82f	-0.03268
11	0xb0c0	-0.1484
12	0xaf29	-0.1119
13	0xaccb	-0.0749
14	0xacfb	-0.0778
15	0xacf0	-0.07715
16	0xaddc	-0.09155
17	0xb040	-0.1328
18	0xad08	-0.0786
19	0xabfd	-0.0624
20	0xaccb	-0.0749
21	0xafa5	-0.11945
