fart-noises-v1.1.tflite (tflite, 9432 bytes, 9 tensors)

arith.constant f2 [10]
0	0xaf20	-0.1113
1	0xaa37	-0.04855
2	0xa45f	-0.01707
3	0x2d79	0.0855
4	0xa7c6	-0.03036
5	0xa732	-0.0281
6	0x29cb	0.04526
7	0x296c	0.04236
8	0xaf8c	-0.1179
9	0x2ca2	0.0724

arith.constant1 f2 [10, 3, 3, 1]
0	0xa0a6	-0.00908
1	0xb0f3	-0.1547
2	0x2f3d	0.1131
3	0x313d	0.1637
4	0xb09c	-0.144
5	0xad0a	-0.07874
6	0x235b	0.014366
7	0xb052	-0.135
8	0x984e	-0.002102
9	0x2881	0.0352
10	0x3085	0.1412
11	0xb214	-0.19
12	0x28e5	0.03824
13	0xaf57	-0.1147
14	0x2f4b	0.11395
15	0xaaed	-0.0541
16	0x2398	0.01483
17	0x2c36	0.0658
18	0xac03	-0.0627
19	0xac38	-0.0659
20	0x3516	0.3179
21	0xad26	-0.08044
22	0xa0b4	-0.009186
23	0x2824	0.03235
24	0x32a4	0.2075
25	0xaf1a	-0.11096
26	0xac58	-0.0679
27	0xac44	-0.06665
28	0xaefd	-0.1092
29	0x3093	0.143
30	0x19d9	0.002855
31	0x3295	0.2057
32	0x1b1a	0.003468
33	0x3017	0.1278
34	0xadf0	-0.0928
35	0xb245	-0.1959
36	0x3424	0.2588
37	0xb16b	-0.1693
38	0x21ab	0.01107
39	0xacda	-0.0758
40	0x2e01	0.0938
41	0x2bce	0.06097
42	0xaf6a	-0.11584
43	0x3010	0.127
44	0xb24e	-0.197
45	0xa672	-0.02518
46	0xa491	-0.01784
47	0x2aa8	0.052
48	0x26b1	0.02614
49	0x24bb	0.01848
50	0x31cd	0.1813
51	0x30b2	0.1467
52	0xb07e	-0.1404
53	0xad8b	-0.0866
54	0x2c64	0.0686
55	0x3256	0.198
56	0x32a2	0.2073
57	0xae79	-0.10114
58	0xab52	-0.0572
59	0xb432	-0.2622
60	0x319c	0.1753
61	0xb1cf	-0.1815
62	0x3078	0.1396
63	0xad6e	-0.08484
64	0x2d31	0.0811
65	0x301e	0.1287
66	0xb24a	-0.1965
67	0x3115	0.1588
68	0xb283	-0.2035
69	0xb10e	-0.158
70	0x25f7	0.0233
71	0x30ba	0.1477
72	0x3337	0.2255
73	0xae5f	-0.09955
74	0xafef	-0.12396
75	0xa71c	-0.02777
76	0xb02d	-0.1305
77	0x3094	0.1431
78	0x291d	0.03995
79	0xb2ee	-0.2166
80	0x2cd5	0.0755
81	0x97d0	-0.001907
82	0xae86	-0.1019
83	0xae46	-0.098
84	0xb2d7	-0.2137
85	0x336f	0.2323
86	0x3025	0.1295
87	0x3212	0.1897
88	0xae0b	-0.0944
89	0xb00d	-0.1266

arith.constant2 f2 [10]
0	0xb4df	-0.3044
1	0xb0e9	-0.1534
2	0xb8b4	-0.588
3	0xbcf5	-1.239
4	0xb2fa	-0.218
5	0xb82f	-0.523
6	0xb9f6	-0.745
7	0xb96e	-0.6787
8	0xb372	-0.2327
9	0xbb2e	-0.8975

arith.constant3 f2 [10]
0	0x48f6	9.92
1	0x4e8a	26.16
2	0x48dd	9.73
3	0x4bee	15.86
4	0x4edd	27.45
5	0x49a5	11.29
6	0x47d6	7.836
7	0x48da	9.7
8	0x4cc5	19.08
9	0x4a0a	12.08

arith.constant4 f2 [20]
0	0xb415	-0.2551
1	0xb282	-0.2034
2	0xb730	-0.4492
3	0xb63b	-0.3894
4	0xb72b	-0.448
5	0xb5ff	-0.3748
6	0xb3a1	-0.2384
7	0xb420	-0.2578
8	0xb31e	-0.2224
9	0xb2ac	-0.2085
10	0xb73e	-0.4526
11	0xb455	-0.2708
12	0xb74c	-0.456
13	0xb422	-0.2583
14	0x1e60	0.006226
15	0xb889	-0.567
16	0xb430	-0.2617
17	0xb49d	-0.2883
18	0xb228	-0.1924
19	0xb659	-0.3967

arith.constant5 f2 [20]
0	0x4c2f	16.73
1	0x4c4a	17.16
2	0x4a26	12.3
3	0x4ab6	13.42
4	0x4cd8	19.38
5	0x4879	8.945
6	0x4c3e	16.97
7	0x4b98	15.19
8	0x4c81	18.02
9	0x4c54	17.31
10	0x4841	8.51
11	0x4cf5	19.83
12	0x495e	10.734
13	0x4c74	17.81
14	0x4fbf	30.98
15	0x46dc	6.86
16	0x4aa9	13.32
17	0x4d43	21.05
18	0x4c22	16.53
19	0x4ba4	15.28

arith.constant8 f2 [1, 20]
0	0xb482	-0.2817
1	0xb813	-0.5093
2	0x3681	0.4065
3	0x34ee	0.308
4	0x32b7	0.2098
5	0xb744	-0.454
6	0x3b18	0.8867
7	0x3957	0.6675
8	0xb627	-0.3845
9	0xb847	-0.5347
10	0x38c5	0.596
11	0xb4c7	-0.2986
12	0x3848	0.535
13	0xb45d	-0.2727
14	0x9778	-0.001823
15	0x369e	0.4136
16	0xb6fc	-0.4365
17	0xb28c	-0.2046
18	0xb90b	-0.6304
19	0x34d3	0.3015

arith.constant9 f2 [20, 3, 3, 10]
0	0x2166	0.010544
1	0xa9fb	-0.04672
2	0x246e	0.0173
3	0x2cd1	0.07526
4	0xac17	-0.0639
5	0x263e	0.02438
6	0xab54	-0.05725
7	0x9956	-0.002605
8	0xac08	-0.063
9	0xac15	-0.0638
10	0xab00	-0.0547
11	0x2d53	0.0832
12	0x0c8d	0.0002778
13	0xa63b	-0.02434
14	0xae6d	-0.1004
15	0xa81c	-0.0321
16	0x2332	0.01405
17	0xaa10	-0.04736
18	0x9f59	-0.007175
19	0x9c41	-0.004154
20	0xacef	-0.0771
21	0x2d0c	0.07886
22	0xa83b	-0.03305
23	0xad2b	-0.08075
24	0x1b57	0.003584
25	0x28d5	0.03775
26	0xa8bd	-0.03702
27	0x8e27	-0.0003755
28	0x280f	0.0317
29	0xa4f0	-0.01929
30	0xa782	-0.02933
31	0xa805	-0.0314
32	0xa0ac	-0.009125
33	0x23c0	0.01514
34	0x217b	0.010704
35	0x246a	0.01724
36	0x2951	0.04153
37	0x28ee	0.0385
38	0x2dcd	0.09064
39	0xac5d	-0.0682
40	0x270e	0.02756
41	0x9c66	-0.004295
42	0x2a9d	0.05167
43	0x9fa6	-0.00747
44	0x2f86	0.11755
45	0x2168	0.01056
46	0xad0d	-0.0789
47	0x21e1	0.01148
48	0xa7c7	-0.03038
49	0x9391	-0.0009236
50	0x2b84	0.05872
51	0xa982	-0.04303
52	0x2458	0.01697
53	0xa2f4	-0.01358
54	0x223b	0.01217
55	0xa62a	-0.02408
56	0xa183	-0.010765
57	0x1db6	0.005577
58	0xa57d	-0.02144
59	0x26fe	0.02731
60	0x292a	0.04034
61	0x1cef	0.004818
62	0xaa62	-0.04987
63	0x2660	0.0249
64	0xa5d8	-0.02283
65	0x2ad3	0.0533
66	0xa77b	-0.02922
67	0xa33e	-0.014145
68	0xa9be	-0.04486
69	0xa8a4	-0.03625
70	0xa886	-0.03534
71	0x2784	0.02936
72	0x2121	0.01002
73	0xa8f0	-0.03857
74	0x1364	0.000902
75	0x2b21	0.0557
76	0x1405	0.000981
77	0xa2f8	-0.01361
78	0x2da4	0.08813
79	0x2a73	0.05038
80	0x26c9	0.0265
81	0x20aa	0.00911
82	0x1cba	0.004616
83	0x1e75	0.006306
84	0x25af	0.0222
85	0x1570	0.0013275
86	0xae57	-0.09906
87	0xac94	-0.07153
88	0x2cf1	0.0772
89	0xaa59	-0.0496
90	0xac02	-0.0626
91	0xac19	-0.064
92	0x2601	0.02345
93	0xa8bb	-0.03696
94	0xab11	-0.0552
95	0x286d	0.03458
96	0xae01	-0.0938
97	0xace3	-0.07635
98	0x2cfc	0.0779
99	0xa255	-0.01237
100	0xa2cc	-0.013275
101	0x216c	0.01059
102	0xac19	-0.064
103	0xaba2	-0.05963
104	0xabe2	-0.06158
105	0xa957	-0.04172
106	0xab17	-0.0554
107	0x2465	0.01717
108	0xa42d	-0.01631
109	0x2435	0.01643
110	0xa8d4	-0.03772
111	0xaa90	-0.05127
112	0xa618	-0.0238
113	0x2819	0.032
114	0xac7d	-0.0701
115	0x2c1b	0.06415
116	0xad36	-0.0814
117	0xaf62	-0.11536
118	0x2cf5	0.07745
119	0xaf91	-0.1182
120	0xa884	-0.03528
121	0xabbe	-0.0605
122	0x14a4	0.001133
123	0x29b3	0.04453
124	0x236e	0.01451
125	0x1de0	0.005737
126	0xa90d	-0.03946
127	0xaacd	-0.05313
128	0xa305	-0.01371
129	0xac91	-0.07135
130	0xac5e	-0.06824
131	0xa9f4	-0.0465
132	0x21a0	0.01099
133	0xadf6	-0.09314
134	0x2b01	0.05472
135	0x9eba	-0.00657
136	0xa747	-0.02843
137	0xa515	-0.01985
138	0x3065	0.1373
139	0xb049	-0.1339
140	0x254b	0.02068
141	0xacd1	-0.07526
142	0xac80	-0.0703
143	0xa4d0	-0.0188
144	0x3006	0.1257
145	0xa537	-0.02037
146	0xb084	-0.1411
147	0x2e90	0.10254
148	0x1d3b	0.005108
149	0x2a49	0.0491
150	0x26d1	0.02663
151	0xad6f	-0.0849
152	0xa9eb	-0.04623
153	0xa09e	-0.00902
154	0xa88d	-0.03555
155	0xac5e	-0.06824
156	0xada8	-0.0884
157	0x303a	0.1321
158	0x2bf3	0.0621
159	0xa5b1	-0.02223
160	0xac10	-0.0635
161	0xae58	-0.0991
162	0xa206	-0.011765
163	0x2af0	0.0542
164	0x22af	0.013054
165	0x29c5	0.04507
166	0xa57b	-0.02141
167	0xabd9	-0.0613
168	0x1de3	0.00575
169	0xae7a	-0.1012
170	0x2aea	0.05402
171	0xad5c	-0.08374
172	0xa692	-0.02567
173	0x282c	0.0326
174	0xa89b	-0.03598
175	0x2a23	0.04794
176	0xa895	-0.0358
177	0xaa7c	-0.05066
178	0x11e5	0.0007195
179	0x2062	0.00856
180	0x2ac7	0.05295
181	0xaa7e	-0.05072
182	0xa450	-0.01685
183	0xa59a	-0.02188
184	0xac63	-0.06854
185	0xaeaa	-0.1041
186	0x292b	0.04037
187	0x9980	-0.002686
188	0xae16	-0.0951
189	0xa63c	-0.02435
190	0x2a56	0.0495
191	0xa971	-0.0425
192	0xb007	-0.1259
193	0x1e67	0.006252
194	0x1966	0.002636
195	0xab42	-0.0567
196	0x2819	0.032
197	0x9d8b	-0.005413
198	0x2800	0.03125
199	0xa643	-0.02446
200	0x28ea	0.0384
201	0xab61	-0.05765
202	0xac26	-0.0648
203	0xa5b4	-0.02228
204	0xa308	-0.01373
205	0xadb5	-0.0892
206	0x280a	0.03156
207	0x2c23	0.06464
208	0x9df3	-0.00581
209	0x1887	0.00221
210	0x23e9	0.01545
211	0x1d9b	0.005474
212	0xa9b6	-0.04462
213	0xa652	-0.02469
214	0xac6b	-0.06903
215	0x27db	0.03069
216	0x9ad6	-0.003338
217	0xa051	-0.00843
218	0x1c88	0.004425
219	0xa7ee	-0.03098
220	0xa548	-0.02063
221	0x1d2b	0.005047
222	0xa51d	-0.01997
223	0x2be5	0.06168
224	0x2d05	0.0784
225	0xaeea	-0.10803
226	0x2b06	0.05487
227	0x2953	0.0416
228	0xafee	-0.1239
229	0x2d66	0.08435
230	0xa9e4	-0.04602
231	0xa818	-0.03198
232	0xa03a	-0.008255
233	0xac53	-0.06757
234	0x2d75	0.08527
235	0xa87e	-0.0351
236	0xa98f	-0.04343
237	0x2d26	0.08044
238	0xafda	-0.1227
239	0x9937	-0.002546
240	0xa8ea	-0.0384
241	0xa820	-0.03223
242	0x26da	0.02676
243	0xad02	-0.07825
244	0xab73	-0.0582
245	0x2561	0.02101
246	0x2e7c	0.1013
247	0xa330	-0.01404
248	0xa5cd	-0.02266
249	0xadc5	-0.09015
250	0xa546	-0.0206
251	0x2c49	0.06696
252	0x22ba	0.01314
253	0x2311	0.0138
254	0xa29c	-0.01291
255	0x296d	0.0424

arith.constant10 f2 [20]
0	0xae28	-0.0962
1	0xaf70	-0.1162
2	0xa72f	-0.02806
3	0xb124	-0.1606
4	0xac07	-0.0629
5	0xaf2b	-0.112
6	0xae42	-0.0978
7	0xad07	-0.07855
8	0xac7d	-0.0701
9	0xad8d	-0.08673
10	0xb002	-0.1252
11	0xafa3	-0.1193
12	0xb215	-0.1901
13	0xadc4	-0.0901
14	0xad6e	-0.08484
15	0xac79	-0.0699
16	0xadb5	-0.0892
17	0xaacb	-0.05307
18	0xaf7a	-0.1168
19	0xac99	-0.07184
